output/csi300_NRSR/model.bin (torch, 160603 bytes, 10 tensors)

W f4 [230, 1]
0	0xbe4bc833	-0.19900589
1	0xbe502a59	-0.20328654
2	0xbde0f5f5	-0.109844126
3	0x3db7c51d	0.08973143
4	0x3e82239e	0.254178
5	0x3e4da737	0.20083319
6	0x3e4bdfa1	0.19909526
7	0xbd43032d	-0.04761045
8	0x3e5811e4	0.21100575
9	0x3dc1f51d	0.0947058
10	0xbe391b8a	-0.18076912
11	0x3cb49a81	0.02204633
12	0x3d5b2e95	0.05351122
13	0xbeb47d31	-0.35251763
14	0x3b8ee95e	0.0043613156
15	0xbdd2c9dc	-0.10292408
16	0xbd419262	-0.047258742
17	0x3e8e5ba6	0.27804297
18	0x3e821e14	0.25413573
19	0xbd68e265	-0.05685653
20	0x3e7659c3	0.24057679
21	0x3e9f1d82	0.310772
22	0x3ded1c18	0.11577624
23	0x3d0861b4	0.033296302
24	0xbc1cbcdc	-0.009566512
25	0x3e289aec	0.16465348
26	0xbe5e2cf1	-0.21696831
27	0xbe89ff86	-0.2695276
28	0xbddb7c84	-0.10717109
29	0x3ec9c4d6	0.39407986
30	0xbbb2096b	-0.0054332516
31	0xbea047a2	-0.31304651
32	0xbd3db986	-0.046319507
33	0x3df34db6	0.118800566
34	0xbef9605d	-0.48706332
35	0xbd8990ff	-0.06717109
36	0xbe39fb64	-0.18162304
37	0xbd03692d	-0.032082725
38	0xbe39bac6	-0.18137655
39	0xbdbd1fed	-0.09234605
40	0xbe989da2	-0.29807764
41	0x3e08b734	0.13351136
42	0x3e3108f9	0.17288579
43	0x3d9e9eca	0.0774513
44	0xbcf53839	-0.029934036
45	0xbdb60a9c	-0.08888742
46	0xbdab71c0	-0.083713055
47	0xbe60c7ca	-0.21951213
48	0xbeb88a81	-0.3604317
49	0x3d6988c7	0.057015207
50	0x3ea59074	0.3233677
51	0xbe83680b	-0.25665316
52	0x3de88317	0.113531284
53	0xbe1ec6e4	-0.15505558
54	0xbd794315	-0.06085499
55	0xbe3d5071	-0.18487717
56	0x3da14876	0.07875149
57	0xbe15bd50	-0.14622998
58	0x3d5b4a50	0.053537667
59	0x3e90a79a	0.2825287
60	0x3edff514	0.43741667
61	0x3c818f92	0.01581553
62	0x3d41918a	0.047257937
63	0xbe5d3c22	-0.2160497
64	0xbddd3eff	-0.10803031
65	0x3d29fe7b	0.041502457
66	0xbe8c6cf8	-0.27426887
67	0x3e442318	0.19154012
68	0x3dc67299	0.096898265
69	0x3f5991ec	0.84988284
70	0x3f00e6d2	0.50352204
71	0x3dcd7321	0.10031725
72	0x3de6da9a	0.11272164
73	0x3eb7e575	0.3591725
74	0xbe7fcb42	-0.2497988
75	0x3da1a876	0.078934595
76	0x3f0c37e7	0.547728
77	0xbdde0402	-0.10840608
78	0x3e6706b5	0.22561152
79	0xbf09a639	-0.5376926
80	0xbd1a5600	-0.037679672
81	0x3e355e42	0.17711738
82	0x3f17759b	0.59163827
83	0xbeba8e2b	-0.3643659
84	0x3e856b89	0.26058605
85	0x3eb55e04	0.3542329
86	0x3e4cd33c	0.20002455
87	0xbc431a3a	-0.011908108
88	0x3e3a9767	0.18221818
89	0x3ebe6252	0.37184387
90	0xbe9a2c70	-0.30112028
91	0xbed65931	-0.41864923
92	0xbd88f119	-0.06686611
93	0x3da5e388	0.08100039
94	0xbe7b5c46	-0.24546918
95	0x3e51d95d	0.20493074
96	0xbdfe6646	-0.12421851
97	0x3ec50a92	0.38484627
98	0xbe3985cb	-0.18117444
99	0xbcb1030d	-0.0216079
100	0x3de10cf6	0.109888
101	0xbe6cd572	-0.23128298
102	0x3e65568e	0.22396299
103	0xbec8d808	-0.3922732
104	0xbcb9f963	-0.022701925
105	0xbe3a9a98	-0.18223035
106	0x3e040bec	0.12895173
107	0x3e55f8eb	0.20895736
108	0x3e5400b9	0.207034
109	0x3d5b827d	0.05359124
110	0xbe06f1ec	-0.13178223
111	0xbd791709	-0.060812984
112	0x3e0a8da8	0.135306
113	0x3ccde938	0.025135621
114	0xbd3c86a9	-0.04602686
115	0x3d516634	0.05112286
116	0x3dfa5639	0.12223477
117	0xbd266182	-0.040620334
118	0xbef0a645	-0.47001854
119	0x3f2f5d32	0.6850158
120	0x3e78618f	0.24255966
121	0xbef8578d	-0.48504296
122	0xbe12d8c8	-0.14340508
123	0xbed0171c	-0.4064263
124	0x3f0aba63	0.54190654
125	0x3eea41ec	0.4575342
126	0x3e0295f9	0.12752523
127	0x3da8a1ef	0.082340114
128	0x3d9532ce	0.07285081
129	0xbf0b778e	-0.544793
130	0xbe25af8e	-0.1618025
131	0x3e0b9d5a	0.13634244
132	0xbda51ca9	-0.08062107
133	0xbdfeb509	-0.124368735
134	0x3ea810df	0.32825372
135	0x3e80a1dc	0.2512349
136	0xbe02e5fd	-0.12783046
137	0xbe513815	-0.2043155
138	0xbecbc68b	-0.39799914
139	0x3c679ba8	0.014136232
140	0xbb8d23fb	-0.0043072677
141	0xbdeb34b7	-0.11484664
142	0xbf09cc40	-0.53827286
143	0xbd995580	-0.07487011
144	0x3f0e76cf	0.5565004
145	0x3dee78f8	0.11644167
146	0xbe77d528	-0.24202406
147	0x3ee4b2ff	0.44667813
148	0xbef4f4ae	-0.47842926
149	0x3ea60645	0.32426658
150	0x3df882f9	0.12134356
151	0x3b2005c9	0.002441751
152	0x3f35a5ad	0.70955926
153	0xbf5404c3	-0.82819766
154	0x3ea74e80	0.32677078
155	0x3f02bb01	0.51066595
156	0x3e56c74c	0.20974463
157	0xbe8e11ce	-0.2774796
158	0xbe919235	-0.2843186
159	0xbe1bd9f0	-0.15219855
160	0xbf21bae5	-0.63175803
161	0x3ee88f10	0.45421648
162	0xbce9393d	-0.028469676
163	0xbf371865	-0.715216
164	0xbe7ebba5	-0.24876268
165	0x3cb28d8f	0.021796016
166	0xbec13ae9	-0.37740257
167	0xbdda787f	-0.10667514
168	0x3d8d588e	0.06901656
169	0xbe7da16a	-0.24768606
170	0x3ee81cd2	0.45334488
171	0xbe081bdb	-0.13291876
172	0x3e60a428	0.2193762
173	0x3e89d8a1	0.26923087
174	0xbeedee69	-0.46470955
175	0xbb0c7a3c	-0.0021435162
176	0xbe9e4671	-0.30913118
177	0xbeb8c175	-0.36085096
178	0x3f1a651e	0.6031054
179	0xbf118b8b	-0.5685355
180	0xbdc49007	-0.095977835
181	0x3e1d42bb	0.15357487
182	0x3dab5c74	0.083672434
183	0xbea736cc	-0.32658994
184	0xbe97356d	-0.29532948
185	0x3db95905	0.09050182
186	0xbe17f212	-0.14838436
187	0x3e0d2534	0.13783723
188	0xbef75c5e	-0.48312658
189	0xbf097b69	-0.53703934
190	0x3cee7038	0.029106244
191	0xbf1b306a	-0.6062075
192	0xbcf2e211	-0.029648812
193	0xbeab8a1c	-0.33503807
194	0x3db68ad8	0.08913201
195	0xbef02a90	-0.46907473
196	0xbecef9c3	-0.40424928
197	0xbcafafee	-0.021446194
198	0x3f04f3c2	0.51934445
199	0x3ef9fa36	0.48823708
200	0xbeac99ea	-0.33711177
201	0x3c605a57	0.013693414
202	0x3e90e150	0.282969
203	0xbe0a8f64	-0.13531262
204	0xbf686a82	-0.9078752
205	0xbe6ffb97	-0.23435818
206	0xbe20889f	-0.15677117
207	0xbdf3fdad	-0.11913619
208	0x3bcdc3b7	0.0062794345
209	0xbdc50dfb	-0.09621807
210	0x3d1c19cf	0.03811055
211	0x3d06687a	0.03281448
212	0xbebc9722	-0.36834055
213	0x3f0ba9df	0.5455608
214	0x3e4b8152	0.1987355
215	0xbec9f56c	-0.39445055
216	0x3e330de7	0.17485772
217	0x3df9a429	0.12189514
218	0x3da8e992	0.08247675
219	0x3f07b1b5	0.53005534
220	0x3ec009a8	0.37507367
221	0xbe772abb	-0.24137394
222	0x3b152b28	0.0022761319
223	0xbe06ddff	-0.13170622
224	0x3dc434cb	0.09580382
225	0xbe4b415a	-0.19849148
226	0x3e970e96	0.29503316
227	0x3d12beec	0.03582661
228	0xbca5a109	-0.02021839
229	0xbebb94be	-0.3663692

rnn.weight_ih_l0 f4 [192, 6]
0	0xbdbdc4b7	-0.09266036
1	0xbe141ba7	-0.14463674
2	0xbe32d4e3	-0.17464022
3	0xbe30ac38	-0.17253196
4	0xbde8e48c	-0.11371717
5	0xbc09cea9	-0.008411088
6	0x3e9243be	0.28567308
7	0xbd1804bf	-0.0371139
8	0x3e48a403	0.19593816
9	0x3d82aad9	0.06380243
10	0xbdf82a68	-0.12117463
11	0x3e619bad	0.22032042
12	0x3dd72c28	0.10506469
13	0xbdad64d2	-0.084664956
14	0xbcee8807	-0.029117597
15	0x3d24b0fd	0.04020785
16	0xbd444168	-0.04791394
17	0x3f000f8e	0.50023735
18	0xbe027848	-0.12741196
19	0x3d8389c6	0.064227626
20	0xbd5c9633	-0.05385418
21	0x3df21b9e	0.11821674
22	0x3de066f6	0.10957138
23	0x3c57e14f	0.013176276
24	0xbd808bad	-0.06276641
25	0xbf2982c8	-0.6621518
26	0xbed3b089	-0.41345623
27	0xbe2cba4d	-0.16867943
28	0x3d0685f0	0.032842577
29	0xbe2456e4	-0.16048771
30	0x3ec47c2f	0.38375995
31	0x3dcc33e7	0.09970837
32	0x3e4188e6	0.18899879
33	0x3ea91fab	0.33031973
34	0xbdbc0bc4	-0.091819316
35	0xbdd824cf	-0.10553896
36	0xbd46d6a5	-0.048544545
37	0x3e158669	0.14602055
38	0x3d21f3bf	0.039539095
39	0x3dfa8619	0.12232608
40	0xbb503d00	-0.003177464
41	0xbe8cfada	-0.27535135
42	0xbdb699a9	-0.08916027
43	0xbca39e17	-0.019972844
44	0x3c783ff0	0.015151963
45	0xbec1da28	-0.37861753
46	0x3d6cece4	0.057843104
47	0xbdf13848	-0.11778313
48	0x3dc73f22	0.097288385
49	0x3cc8f5e0	0.024531305
50	0x3df3c1c8	0.11902195
51	0x3c8d9ddb	0.017287185
52	0xbd79f538	-0.061024874
53	0x3e5b8d0f	0.21440528
54	0x3d897238	0.067112386
55	0xbca46644	-0.020068295
56	0xbe33ed3c	-0.17570966
57	0xbddd807f	-0.10815524
58	0xbd61f14c	-0.05516176
59	0xbe79fd6f	-0.24413083
60	0x3d716e46	0.058943056
61	0x3da4ca1a	0.0804636
62	0x3cb727cf	0.02235785
63	0x3c36cec2	0.011157693
64	0xbdf29dd8	-0.118465126
65	0xbccb3d93	-0.024809634
66	0x3e8a9ce3	0.2707282
67	0xbdcb47ce	-0.09925805
68	0xbdf9955c	-0.12186691
69	0x3cae9a83	0.021313911
70	0xbd75ac30	-0.059978664
71	0xbd3f4bd1	-0.046703164
72	0xbcbeaf19	-0.023276852
73	0xbe4a89e7	-0.19779168
74	0x3d532794	0.051551417
75	0xbdac801c	-0.084228724
76	0xbdd358e1	-0.10319687
77	0xbee2c2c3	-0.44289216
78	0x3dc49232	0.09598197
79	0xbe22c5e0	-0.15895796
80	0x3e115ab4	0.14194757
81	0x3d4572ac	0.048205063
82	0xbdd0be10	-0.101925015
83	0x3cb24e14	0.021765746
84	0xbe316aa3	-0.17325835
85	0x3cfd3f3b	0.03091394
86	0xbda031a1	-0.07821966
87	0xbd656bbe	-0.056010954
88	0x3deb6ec2	0.11495735
89	0x3e8b2c0c	0.27182043
90	0x3d93f34d	0.0722414
91	0xbc3295df	-0.01089999
92	0x3db3e862	0.08784558
93	0xbe5033fa	-0.20332327
94	0xbdcdf45c	-0.100563735
95	0x3e25885e	0.16165301
96	0xbe0e8cac	-0.1392085
97	0x3c958916	0.018253844
98	0xbd096671	-0.03354496
99	0xbeda61fa	-0.42652875
100	0xbae1b201	-0.0017219187
101	0xbe5308f2	-0.20608881
102	0xbbe07a58	-0.006850522
103	0xba11c533	-0.0005560696
104	0xbd30474f	-0.043036755
105	0x3cd3fcc5	0.025877366
106	0xbd827e76	-0.06371777
107	0xbe03f1dc	-0.12885231
108	0x3ce337cc	0.027736567
109	0x3d7ae852	0.061256714
110	0x3c6602c6	0.014038747
111	0x3e1c3008	0.15252697
112	0x3cbf8681	0.023379566
113	0xbc78224f	-0.015144899
114	0x3e13e034	0.14440995
115	0x3df02953	0.11726632
116	0x3f1deccf	0.61689466
117	0xbd8c6206	-0.06854634
118	0xbbae95e0	-0.005327925
119	0xbe7f48dd	-0.24930139
120	0x3e152d3f	0.14568041
121	0xbbca0ad6	-0.0061658425
122	0x3dbcef26	0.092253014
123	0x3ea8ca67	0.3296692
124	0xbd9040e4	-0.07043627
125	0xbdb2e7cb	-0.08735617
126	0xbe90eb8c	-0.28304708
127	0xbd5a86e8	-0.053351313
128	0xbea2ed71	-0.31821778
129	0xbd578982	-0.052621372
130	0xbd315ed5	-0.04330333
131	0xbe62845d	-0.22120805
132	0x3ef2284f	0.47296378
133	0x3e9a0bb3	0.3008705
134	0x3e2adb38	0.16685188
135	0x3e6ba0a0	0.23010492
136	0xbd63cb59	-0.05561385
137	0x3d7e8767	0.06214085
138	0xbd4e54c6	-0.050373815
139	0x3d43f6d7	0.047842827
140	0x3d04ed07	0.03245261
141	0xbcd6d56e	-0.026224818
142	0x3c87b1a0	0.01656419
143	0x3e4e34b3	0.2013729
144	0x3d91f085	0.071259536
145	0x3e6a9e03	0.22911839
146	0x3dfad2b9	0.122472234
147	0x3e759ff0	0.23986793
148	0xbd55de09	-0.052213702
149	0xbe459cd3	-0.19298105
150	0x3d7c2c9c	0.06156598
151	0xbc923d5f	-0.01785153
152	0xbded1434	-0.11576119
153	0xbdf21c90	-0.11821854
154	0x3d7359f0	0.059411943
155	0x3e6ebf45	0.23315151
156	0xbdcfe77b	-0.10151573
157	0xbdc464ea	-0.0958956
158	0x3dfb0b3e	0.12258004
159	0xbea320ae	-0.3186087
160	0xbd1b3b4c	-0.037898347
161	0xbe76c7b9	-0.24099626
162	0xbd99636c	-0.07489666
163	0xbed9f1fc	-0.42567432
164	0xbef60589	-0.48051098
165	0xbe51f05d	-0.20501848
166	0x3dd6ef8d	0.104949094
167	0x3c5c6882	0.013452651
168	0x3db901c3	0.09033539
169	0xbddf88c1	-0.109147556
170	0x3e14df03	0.14538197
171	0x3db91408	0.09037024
172	0x3de320d4	0.11090246
173	0x3eef318a	0.46717483
174	0x3d15c8e2	0.03656853
175	0x3da938d0	0.08262789
176	0xbe9a326c	-0.30116594
177	0x3dc97044	0.09835866
178	0x3c804950	0.015659958
179	0x3ee25c63	0.4421111
180	0x3e29f5fc	0.16597742
181	0x3e9052e6	0.28188246
182	0x3c816de1	0.015799465
183	0x3d4d3b88	0.0501056
184	0x3dbe4b2a	0.0929168
185	0x3d3428ac	0.0439841
186	0x3e474001	0.1945801
187	0x3e32aaf9	0.17448033
188	0x3e3bb40a	0.18330398
189	0x3e14d8f4	0.14535886
190	0x3dfa80bf	0.122315876
191	0x3dd7d96b	0.10539516
192	0xbe7e230a	-0.24818054
193	0xbe101869	-0.14071812
194	0x3d9fe7f7	0.07807916
195	0xbd434e9a	-0.047682382
196	0xbdfc024c	-0.123051256
197	0xbe59d52d	-0.21272726
198	0x3d90cac1	0.07069922
199	0xbba6b3f3	-0.0050873696
200	0xbd8da308	-0.06915861
201	0xbd6f606f	-0.058441576
202	0x3ddc4d5e	0.10756944
203	0xbe3103aa	-0.17286554
204	0x3e1877dc	0.14889473
205	0xbd0d2343	-0.034457456
206	0x3d89b698	0.0672428
207	0x3e2853d2	0.16438225
208	0xbd74c5cc	-0.059758946
209	0xbe595a9e	-0.21225974
210	0x3cc8b368	0.02449961
211	0x3dfb1e70	0.12261665
212	0x3e0938c1	0.13400556
213	0x3ca67d3f	0.020323394
214	0xbc5f9fe0	-0.013648957
215	0x3dd064b6	0.10175459
216	0xbe40b103	-0.18817525
217	0x3d014c13	0.03156669
218	0x3e6ed411	0.23323084
219	0xbe86a67c	-0.26298892
220	0x3cd491e8	0.02594848
221	0x3e391827	0.1807562
222	0x3dcc7ed2	0.099851266
223	0x3cc9ca1e	0.02463251
224	0x3e64f5c4	0.22359377
225	0x3d75d4d2	0.060017414
226	0xbd153e1c	-0.036436185
227	0x3d26c830	0.040718257
228	0xbe4094ef	-0.18806814
229	0x3e15cae9	0.14628185
230	0x3da581c4	0.080813915
231	0xbd1e0107	-0.0385752
232	0x3dcab6bc	0.09898135
233	0x3dc07687	0.09397607
234	0xbdc6e9bf	-0.09712552
235	0x3e181387	0.14851199
236	0xbdaf34f2	-0.085550204
237	0x3b3cdfb0	0.0028819852
238	0xb86b4000	-5.608797e-05
239	0xbecddd0c	-0.40207708
240	0x3de0d235	0.10977594
241	0x3ec589a2	0.38581568
242	0x3e387da6	0.18016681
243	0x3d92d3dc	0.07169315
244	0xbcbac980	-0.02280116
245	0x3d08ac21	0.03336728
246	0x3e5c441b	0.21510355
247	0x3da88350	0.08228171
248	0x3d80fd3b	0.062983
249	0x3eade364	0.33962548
250	0x3d903674	0.07041636
251	0xbad2c980	-0.001608178
252	0x3e7cd204	0.2468949
253	0xbdcba4a4	-0.09943512
254	0x3e951217	0.29115364
255	0x3d80c184	0.0628691

rnn.weight_hh_l0 f4 [192, 64]
0	0x3db2c35e	0.087286696
1	0xbe1c9187	-0.1528989
2	0xbe16a5c1	-0.14711668
3	0xbe26ae53	-0.16277437
4	0xbeb1cbe5	-0.34725872
5	0xbb160455	-0.0022890766
6	0x3d4c10dd	0.04982077
7	0xbcc86312	-0.024461303
8	0x3e7f8913	0.24954633
9	0x3e09aba9	0.1344439
10	0x3ea6c83c	0.32574642
11	0x3e4a0475	0.19728263
12	0xbd9a4d05	-0.075342216
13	0x3c8b3ae5	0.016995857
14	0xbe4bd5d9	-0.19905795
15	0xbe666918	-0.22501028
16	0xbe43fa92	-0.19138554
17	0x3ea96f70	0.33092833
18	0x3d1464bc	0.03622888
19	0xbd6e75e6	-0.058217905
20	0x3cf36eec	0.029715978
21	0xbe4e16ee	-0.20125934
22	0x3dd4cd87	0.10390764
23	0xbd099390	-0.033587992
24	0x3cff6c2d	0.031179512
25	0xbe9a6b19	-0.30159834
26	0xbd262b4a	-0.040568627
27	0x3d997dd8	0.07494706
28	0xbe9250d2	-0.28577286
29	0x3ed9243e	0.42410463
30	0x3e53406f	0.20630048
31	0x3e8a9df8	0.27073646
32	0x3d0f4378	0.034976453
33	0x3b70c767	0.0036739947
34	0xbdf0fe10	-0.117672086
35	0x3ea564e2	0.3230353
36	0xbd097586	-0.033559345
37	0xbdad664e	-0.08466779
38	0x3de5d61e	0.1122248
39	0xbde48195	-0.11157528
40	0x3b34ea3a	0.002760543
41	0xbe8b9ddf	-0.27268884
42	0xbe5dc31d	-0.21656461
43	0xbe46c536	-0.19411168
44	0xbd415863	-0.047203433
45	0xbe235f47	-0.15954314
46	0x3ea06292	0.31325203
47	0x3dc7e3ab	0.09760221
48	0xbe83ad75	-0.25718275
49	0x3e8b3cbe	0.2719478
50	0x3e8449ae	0.25837463
51	0x3d4810da	0.048844196
52	0x3e5c4fe8	0.21514857
53	0xbd83cba7	-0.06435328
54	0xbe740ba6	-0.23832569
55	0xbdb7c4dc	-0.08973095
56	0xbdca8cab	-0.098901115
57	0xbc5c0091	-0.013427869
58	0x3ecdc033	0.401857
59	0xbe232d18	-0.1593517
60	0xbdf8ae01	-0.121425636
61	0x3eac2290	0.3362012
62	0x3e09e059	0.13464488
63	0xbe7d9a4f	-0.24765895
64	0xbeb89b3c	-0.36055934
65	0x3cf76f94	0.030204572
66	0xbdf5b9c3	-0.11998322
67	0xbe2b4b0f	-0.16727851
68	0xbe343ee2	-0.17602113
69	0xbe1b108f	-0.15143035
70	0xbde8a4c6	-0.11359553
71	0xbdb43dca	-0.08800848
72	0x3e6fad48	0.23405945
73	0xbe09a751	-0.13442732
74	0xbde37a22	-0.11107279
75	0x3da0c6da	0.07850428
76	0xbd24942b	-0.040180366
77	0xbe25b8b9	-0.16183747
78	0xbd737eec	-0.059447214
79	0x3d1da0d3	0.038483452
80	0xbdbba612	-0.09162535
81	0x3be3cce2	0.006951914
82	0x3e1494f7	0.1450995
83	0xbc73e5ab	-0.0148863
84	0xbda54b89	-0.08071048
85	0x3c93a5e7	0.018023444
86	0x3e14ed5b	0.14543669
87	0xbe1854ce	-0.148761
88	0x3d77e272	0.06051869
89	0xbe1c2699	-0.15249099
90	0xbe44a424	-0.1920324
91	0x3e8fc968	0.28083348
92	0x3dd5e0cc	0.10443267
93	0x3e03b6bf	0.12862681
94	0x3c39a2cd	0.011330319
95	0x3e1aa7b9	0.15103044
96	0xbdf4c8fb	-0.119523965
97	0x3cebc708	0.028781429
98	0x3d9a121e	0.07522987
99	0x3e38fd7e	0.1806545
100	0x3bb43e1f	0.0055005695
101	0xbe47aa48	-0.19498551
102	0x3e088c76	0.13334832
103	0x3d68708c	0.056747958
104	0x3e045099	0.1292137
105	0xbe4c0918	-0.19925344
106	0x3def871c	0.11695692
107	0xbde7b0ae	-0.11312996
108	0x3d87a13f	0.06622552
109	0x3ddab313	0.10678687
110	0xbdf3aafc	-0.11897847
111	0x3ca18c8f	0.019720344
112	0x3e35dd7b	0.1776027
113	0x3e047a33	0.1293724
114	0x3db55f57	0.08856075
115	0x3e1168f0	0.14200187
116	0x3e5e61e4	0.2171703
117	0xbd9d48df	-0.07679915
118	0xbbdc4099	-0.006721568
119	0xbce3414e	-0.0277411
120	0xbcc6f69c	-0.024287514
121	0xbe90e67d	-0.2830085
122	0xbcc77c03	-0.024351126
123	0xbe0f46f2	-0.13991907
124	0xbe1b9e58	-0.15197122
125	0x3d0cf65c	0.034414634
126	0x3e661d6f	0.22472166
127	0xbe12ef5d	-0.14349122
128	0x3dabe88b	0.083939634
129	0x3dd341b1	0.10315264
130	0xbda8dd8b	-0.08245381
131	0xbd1636c9	-0.03667334
132	0xbde9423e	-0.11389588
133	0xbc99c821	-0.018772187
134	0x3e1fc2fa	0.15601721
135	0xbd9fd09e	-0.078034624
136	0xbe39c79c	-0.18142551
137	0x3dbdad09	0.092615195
138	0x3e842198	0.2580688
139	0x3d032ba4	0.03202404
140	0xbec345a7	-0.38139078
141	0xbdba1253	-0.09085526
142	0x3e116b16	0.14201006
143	0xbe850d39	-0.2598665
144	0xbc76f7cb	-0.015073727
145	0x3cd64da6	0.026160073
146	0xbe74900b	-0.23883073
147	0xbe0b2955	-0.13589986
148	0x3cebf701	0.028804304
149	0x3d2de55c	0.042455062
150	0x3ebd3bce	0.3695969
151	0xbe36efef	-0.17864965
152	0xbe012446	-0.12611493
153	0xbe453a5e	-0.19260547
154	0xbda64fc5	-0.081206836
155	0xbd8bc5d3	-0.06824841
156	0xbe0fc62e	-0.14040443
157	0x3d74d728	0.0597755
158	0xbd07ec07	-0.033184078
159	0x3d188941	0.03724027
160	0x3ddeac35	0.1087269
161	0x3e5a48e0	0.21316862
162	0x3e80db41	0.25167277
163	0xbe02d015	-0.1277469
164	0x3cbeb95e	0.02328175
165	0xbd9140a7	-0.070924096
166	0xbdcc5d67	-0.099787526
167	0xbe219889	-0.15780844
168	0xbe3da8d6	-0.18521437
169	0x3ec67256	0.38759106
170	0xbde76da6	-0.11300211
171	0x3da2ec88	0.07955271
172	0xbd1234e4	-0.03569497
173	0xbe9922df	-0.29909417
174	0x3e449c0e	0.19200155
175	0xbe30fdb5	-0.17284282
176	0xbee67818	-0.450135
177	0xbe9cb17e	-0.30604166
178	0xbdf6989f	-0.12040829
179	0x3e32a253	0.17444734
180	0x3d1df13d	0.03856014
181	0xbaccb1ae	-0.0015616918
182	0xbee0c0f6	-0.43897218
183	0x3d2213ba	0.039569594
184	0xbcbd1bec	-0.023084603
185	0x3ee5c45e	0.4487638
186	0x3e86b3bc	0.26309
187	0x3d184586	0.037175678
188	0xbe60b180	-0.21942711
189	0xbd76ff3a	-0.060301997
190	0xbdab2aec	-0.08357796
191	0x3c19617b	0.00936162
192	0x3e300d0c	0.17192477
193	0xbcdb4ba7	-0.026769472
194	0xbe10104f	-0.14068721
195	0x3d246e27	0.040144112
196	0xbc10433e	-0.008805094
197	0x3c5d149a	0.013493681
198	0xbe7de303	-0.2479363
199	0x3de288d4	0.11061254
200	0x3c383446	0.011242932
201	0xbe15811f	-0.14600037
202	0xbe0a1176	-0.13483223
203	0x3d667b29	0.0562698
204	0x3e99fecc	0.30077207
205	0x3e2bd728	0.16781294
206	0x3d900366	0.07031898
207	0xbe140e04	-0.14458472
208	0xbe252846	-0.16128644
209	0xbdf21fc0	-0.11822462
210	0xbe3d649e	-0.18495414
211	0xbe3e1cef	-0.18565725
212	0x3e10da28	0.1414572
213	0x3d9ded37	0.07711261
214	0xbded1af8	-0.115774095
215	0x3d66498c	0.056222484
216	0x3e137e54	0.14403659
217	0x3d350c14	0.04420097
218	0xbd62fb80	-0.05541563
219	0x3c37af0e	0.01121117
220	0xbd96e8ca	-0.0736862
221	0xbdd0cc96	-0.10195272
222	0x3da07e8d	0.07836638
223	0x3dfa7fdd	0.12231419
224	0x3b162e58	0.0022915807
225	0xbe4e0376	-0.20118508
226	0xbc8b1a89	-0.016980426
227	0xbc90355b	-0.017603567
228	0x3e4b7144	0.19867426
229	0x3e253a26	0.16135463
230	0x3ca83a0f	0.020535497
231	0xbb010748	-0.0019688178
232	0x3dd90448	0.1059652
233	0xbe4ff5a6	-0.20308551
234	0x3dbfaec2	0.09359504
235	0x3a7a7986	0.00095548516
236	0xbd60488c	-0.054756686
237	0xbe3002c7	-0.1718856
238	0x3e3e5747	0.18587981
239	0xbd843ed7	-0.06457298
240	0x3dcf40ad	0.10119758
241	0x3e0fe447	0.14051925
242	0xbcb515a7	-0.022105051
243	0x3c9eff30	0.019408792
244	0x3de663ac	0.1124948
245	0x3d7fe759	0.06247649
246	0x3e9bf6e4	0.304618
247	0x3cceee95	0.02526025
248	0x3e2bdf92	0.16784504
249	0xbd9dcfe2	-0.07705666
250	0xbe2f9e86	-0.17150316
251	0xbe241d11	-0.16026713
252	0x3d2ef4cb	0.04271392
253	0xbe3d28f9	-0.18472661
254	0x3e272ab9	0.16324891
255	0x3d1d6d8b	0.038434546

rnn.bias_ih_l0 f4 [192]
0	0x3d924d27	0.07143622
1	0xbd996b16	-0.07491128
2	0x3a8280a9	0.0009956557
3	0x3e30a5d0	0.17250752
4	0x3dd94c1d	0.106102206
5	0x3da029eb	0.07820495
6	0x3d9fe4d4	0.078073174
7	0x3df75d88	0.120783865
8	0xbd1bc27e	-0.03802728
9	0x3c7849fc	0.015154358
10	0x3df15824	0.117843896
11	0xbe18b7fb	-0.14913933
12	0x3e0a03d1	0.13478018
13	0x3d618f95	0.05506857
14	0x3d70b407	0.058765437
15	0xbd7ea8f4	-0.062172845
16	0xbd4134ad	-0.047169376
17	0x3bee8fb2	0.0072803134
18	0xbd992109	-0.07477004
19	0x3dd32442	0.1030965
20	0x3e27260a	0.16323105
21	0x3e23f843	0.16012673
22	0xbd9954dc	-0.07486889
23	0x3e37c1e3	0.17945056
24	0x3cc94b92	0.024572168
25	0xbd3e26d3	-0.046423744
26	0x3d9b631a	0.075872615
27	0x3e1e925c	0.15485519
28	0x3cab4977	0.020909054
29	0xbe2705f8	-0.1631087
30	0xbd3d0778	-0.0461497
31	0x3e440838	0.1914376
32	0x3d0e5991	0.034753386
33	0xbd910eec	-0.07082924
34	0xbe22d527	-0.15901624
35	0xbc456c31	-0.012049721
36	0xbd95c2fd	-0.07312582
37	0xbd7e46c8	-0.06207922
38	0xb9af3106	-0.00033415126
39	0xbcae55a6	-0.021281075
40	0x3dd0c8a2	0.10194518
41	0x3c95a5b3	0.018267488
42	0x3e2767d1	0.16348197
43	0x3bd77c50	0.0065760985
44	0x3d983cb8	0.07433456
45	0x3dffd91c	0.12492582
46	0x3d49fc28	0.04931274
47	0x3c9798ec	0.018505536
48	0xbc2259a4	-0.009909067
49	0xbcbb216b	-0.022843083
50	0x3c4bea07	0.012445933
51	0x3e173872	0.14767626
52	0xbcdcb32d	-0.026940906
53	0x3d0e7dc5	0.034787912
54	0x3e5fc7f0	0.21853614
55	0xbdec2010	-0.11529553
56	0xbd92b58c	-0.071635336
57	0xbcd3bf9a	-0.025848199
58	0x3e2fb6fd	0.17159648
59	0xbe1a07d6	-0.15042052
60	0x3c5a57e5	0.01332662
61	0x3e4895e2	0.19588426
62	0x3ddd395d	0.10801957
63	0xbe72f1b0	-0.23725009
64	0xbda1da32	-0.079029456
65	0xbe00cb86	-0.12577638
66	0xbc4d3e55	-0.012527068
67	0xbe22139c	-0.15827793
68	0xbe7b8ba4	-0.24564987
69	0x3e3255d0	0.17415547
70	0xbe36f4c8	-0.17866814
71	0xbe77897e	-0.24173543
72	0x3df9159b	0.12162324
73	0xbe5de9a1	-0.21671154
74	0xbd1b0e4d	-0.037855435
75	0xbc55c854	-0.01304825
76	0x3c794a60	0.015215486
77	0xbccf3b42	-0.025296811
78	0xbe7af7f3	-0.24508648
79	0xbeb37d3f	-0.35056493
80	0xbd872810	-0.06599438
81	0x3e645863	0.22299342
82	0xbe58796f	-0.21140073
83	0xbe803fee	-0.25048774
84	0x3d0dc3f4	0.034610704
85	0xbca137cb	-0.019679924
86	0xbd24b914	-0.040215567
87	0xbde7b880	-0.113144875
88	0xbd43f97f	-0.04784536
89	0x3e3c8a12	0.18412045
90	0x3dd6c422	0.10486628
91	0x3ba51dce	0.0050389534
92	0xbd27f5ae	-0.041005783
93	0x3dcf5d18	0.10125178
94	0xbd5918b7	-0.053002086
95	0xbde2a480	-0.11066532
96	0xbdf9da74	-0.1219987
97	0x3c99ce0e	0.018775012
98	0xbdf600bd	-0.120118596
99	0x3e4d36a2	0.20040372
100	0xbd2b9f20	-0.0418998
101	0xbe574371	-0.2102182
102	0xbe061496	-0.1309379
103	0xbe3d282e	-0.18472359
104	0x3e4fd28c	0.20295161
105	0xbd06581d	-0.032798875
106	0xbe37626a	-0.17908636
107	0x3d096e5c	0.033552513
108	0x3e09a04d	0.13440056
109	0xbd56d646	-0.05245044
110	0xbcdf6116	-0.027267974
111	0xbe3ca838	-0.18423545
112	0x3de1ad64	0.110194
113	0x3e992b20	0.29915714
114	0x3ea3cf40	0.31994057
115	0xbe630025	-0.22168024
116	0x3dca77b3	0.09886112
117	0x3e19968c	0.14998835
118	0xbe4764e5	-0.19472082
119	0xbddac2b1	-0.10681666
120	0x3e921f7e	0.28539652
121	0xbe19e250	-0.15027738
122	0x3d8ff8e0	0.07029891
123	0x3dfabe2a	0.12243302
124	0xbdd0e6cc	-0.10200271
125	0xbd30464c	-0.04303579
126	0xbd4fff16	-0.05078038
127	0xbe17ccaa	-0.14824167
128	0x3e2493c6	0.16071996
129	0xbcc5ccd7	-0.024145527
130	0x3db45994	0.08806148
131	0xbbe514b9	-0.0069909957
132	0x3d71bba4	0.05901684
133	0x3ca68e1f	0.02033144
134	0x3dd93b2e	0.10606991
135	0x3d53b0f3	0.051682424
136	0x3d172529	0.036900673
137	0x3d3e991e	0.046532743
138	0xbd1fa40f	-0.038974818
139	0x3da68474	0.08130732
140	0x3c3a5be0	0.011374444
141	0x3d8484ac	0.06470618
142	0x3e1bb963	0.15207438
143	0xbbff0286	-0.0077822832
144	0xbdeed6ba	-0.116620496
145	0xbd93f0ae	-0.072236404
146	0x3c9438f0	0.018093556
147	0xbda2ea7f	-0.07954883
148	0x3da0d8b0	0.0785383
149	0xbd81889c	-0.06324884
150	0xbd4933f6	-0.04912182
151	0x3d9547a6	0.072890565
152	0xbd0dc511	-0.034611765
153	0x3de697bf	0.11259412
154	0xbc9231bd	-0.017845983
155	0xbd7e5303	-0.062090885
156	0x3d18d0f6	0.037308656
157	0x3ca7127e	0.02039456
158	0xbca1bf43	-0.019744521
159	0x3dd3cfb4	0.103423506
160	0x3e17fb9b	0.14842074
161	0x3d2671d2	0.04063589
162	0x3dbe0934	0.09279099
163	0x3de717b8	0.11283821
164	0x3ddf3a06	0.10899739
165	0xbdb9c2cc	-0.09070358
166	0x3e52b2fc	0.2057609
167	0x3e4d8167	0.20068894
168	0x3ddcd3bc	0.107825726
169	0xbd5b9b39	-0.05361483
170	0x3e3ab524	0.18233162
171	0x3d16f754	0.036856964
172	0x3e46b317	0.19404255
173	0xbc702e94	-0.014659543
174	0x3e5b2071	0.21399094
175	0x3dded8ae	0.10881172
176	0x3d5d530e	0.054034285
177	0x3d871d2d	0.06597362
178	0x3d1f3ab6	0.03887435
179	0x3d255e98	0.040373415
180	0x3c607e00	0.013701916
181	0xbdf2ae74	-0.118496805
182	0x3e292836	0.16519246
183	0xbd064d6f	-0.03278869
184	0xbe04f668	-0.12984622
185	0x3c2e7b6e	0.010649545
186	0xbdca5e06	-0.09881215
187	0x3deb1e30	0.11480367
188	0xbdda7b79	-0.10668082
189	0x3c67058b	0.014100443
190	0x3cdca234	0.026932813
191	0xbdcf5b6e	-0.10124861

rnn.bias_hh_l0 f4 [192]
0	0xbdbcff89	-0.09228427
1	0xbc3ebb81	-0.011641384
2	0xbd50a6d6	-0.050940357
3	0xba1a8462	-0.00058943604
4	0xbd0ac8a7	-0.033882763
5	0x3da2b202	0.079441085
6	0x3dec3334	0.11533204
7	0xbaf0bb65	-0.0018366395
8	0xbdcd51a7	-0.100253396
9	0x3d49745d	0.04918324
10	0x3db2ca00	0.08729935
11	0xbdbb0bc0	-0.091331005
12	0x3e0d0668	0.13771975
13	0xbc511982	-0.012762429
14	0x3dca29ee	0.09871279
15	0xbcd140db	-0.02554362
16	0x3e3c24c7	0.18373404
17	0x3d182993	0.037149023
18	0x3d597d96	0.053098284
19	0xbd179db4	-0.03701563
20	0x3e19d372	0.15022066
21	0x3d4d512e	0.050126247
22	0xbc81ecc6	-0.015859973
23	0x3e53a87f	0.20669745
24	0xbd96234e	-0.073309526
25	0xbe007014	-0.12542754
26	0xbc57d325	-0.013172899
27	0x3dc6f95a	0.09715529
28	0x3e1c3f9c	0.1525864
29	0xbd7d0230	-0.061769664
30	0x3dbf4df0	0.09341037
31	0x3cbc7751	0.023006113
32	0x3d8afb07	0.06786161
33	0xbe12d124	-0.14337593
34	0xbdc31aad	-0.095265724
35	0x3ca3a070	0.019973963
36	0xbd6e7580	-0.058217525
37	0xbdd1570e	-0.102216825
38	0x3d91d060	0.071198225
39	0xbca3af48	-0.019981042
40	0xbd48565f	-0.048910495
41	0x3d7cd32c	0.061724827
42	0x3d8aa1bd	0.067691304
43	0xbddc796e	-0.107653484
44	0xbcde0b74	-0.02710507
45	0x3e0327e6	0.12808189
46	0x3e1bd940	0.15219593
47	0x3da83d18	0.08214778
48	0xbb5049ee	-0.0031782347
49	0xbce4f43c	-0.027948491
50	0x3d371763	0.044700038
51	0x3da7993d	0.08183525
52	0x3d0b7bc7	0.03405359
53	0xbc45e7ea	-0.012079218
54	0xbc7f387d	-0.015577433
55	0xbd73b517	-0.059498873
56	0xbd15b6d8	-0.036551327
57	0x3d978760	0.073988676
58	0x3c140da0	0.009036452
59	0x3d667aee	0.05626958
60	0xbc4f6e68	-0.0126606
61	0x3e5c63cc	0.21522444
62	0x3dec4242	0.11536075
63	0xbe80a118	-0.25122905
64	0xbe115ba7	-0.14195119
65	0xbe3e4b6d	-0.1858346
66	0xbe5c5a18	-0.21518743
67	0xbe803953	-0.25043735
68	0xbe226be4	-0.1586147
69	0xbca6ef36	-0.020377737
70	0xbdbc8fcf	-0.09207117
71	0xbec47ac1	-0.38374904
72	0xbdcde640	-0.10053682
73	0xbe4d0dfa	-0.20024863
74	0xbe515fd0	-0.20446706
75	0x3de007a1	0.10938955
76	0x3deca2b6	0.11554472
77	0xbe4d3734	-0.2004059
78	0xbe15d118	-0.14630544
79	0xbe87ecea	-0.2654794
80	0xbc82dd57	-0.015974684
81	0x3eb5182f	0.35370013
82	0x3c834f92	0.016029153
83	0xbea91e72	-0.3303104
84	0x3c7002c4	0.014649097
85	0xbdadaff8	-0.08480829
86	0xbd7ce5fc	-0.061742768
87	0xbdada8f9	-0.084794946
88	0xbe34b767	-0.17648087
89	0x3e104e3c	0.14092344
90	0xbda3f0ba	-0.08004899
91	0xbd897c53	-0.06713166
92	0xbd0283ad	-0.031863857
93	0x3e04d120	0.129704
94	0xbd84136d	-0.06449018
95	0xbde80fb2	-0.11331119
96	0xbdf0e7e0	-0.11762977
97	0xbe3ac6d9	-0.18239917
98	0xbde9ae5c	-0.114102095
99	0x3d8eaf7e	0.06967066
100	0x3dd61c3f	0.10454606
101	0xbddc2274	-0.10748759
102	0x3c6179e2	0.013761969
103	0xbdb31bf4	-0.08745566
104	0x3c152dbd	0.009105143
105	0xbc7cac53	-0.015421945
106	0xbe992d23	-0.2991725
107	0xbc155ed8	-0.009116851
108	0x3daa588b	0.083176695
109	0xbdd62e0f	-0.10458004
110	0xbd74ac38	-0.059734553
111	0xbeab325a	-0.33436853
112	0xbcc3d110	-0.0239034
113	0x3eb84433	0.35989532
114	0x3e9a58b7	0.3014581
115	0xbd84ec1c	-0.06490347
116	0x3dc18bef	0.09450518
117	0x3e28ad74	0.16472417
118	0xbdf5b1df	-0.11996817
119	0xbc85490f	-0.016270189
120	0x3e8df122	0.27723032
121	0xbde6bf91	-0.11267007
122	0xbc9b5efb	-0.018966189
123	0xbd7d193e	-0.06179165
124	0xbcdfac03	-0.027303701
125	0xbc94920d	-0.018136049
126	0x3c9de4b2	0.01927409
127	0xbe559568	-0.20857775
128	0x3cb38ca2	0.021917645
129	0xb8d509c6	-0.00010158452
130	0x3db8f948	0.090319216
131	0xbe032be3	-0.1280971
132	0xbe46a4b8	-0.19398773
133	0xbdc8916e	-0.097933635
134	0x3de3731c	0.1110594
135	0xbd7fe723	-0.06247629
136	0x3d077991	0.03307492
137	0x3e124698	0.14284742
138	0xbdf5b317	-0.11997049
139	0x3db9ce1b	0.090725146
140	0xb7767aa0	-1.46912935e-05
141	0xbe09df34	-0.13464051
142	0x3e545830	0.20736766
143	0xbe2243ce	-0.15846178
144	0xbe55a499	-0.2086357
145	0xbe245fbe	-0.16052148
146	0xbd96396a	-0.073351696
147	0xbcc16e53	-0.023612177
148	0x3d988be9	0.07448561
149	0xbd5a73fa	-0.05333326
150	0x3e17d88b	0.14828698
151	0x3dc9e5c1	0.09858275
152	0xbcec45c3	-0.028841859
153	0x3dfe5d26	0.124201104
154	0xbe466b5d	-0.19376893
155	0x3d9685d2	0.07349743
156	0xbdcc1fa5	-0.09966973
157	0x3d47806e	0.048706464
158	0xbcbf11e0	-0.023323953
159	0x3e15f00a	0.14642349
160	0x3d97af80	0.07406521
161	0xbdb796b1	-0.08964289
162	0xbd9d919b	-0.07693788
163	0xbd989815	-0.07450882
164	0x3dfc09c2	0.12306549
165	0xbdc03415	-0.09384934
166	0x3d8efeae	0.0698217
167	0x3dff914a	0.124788836
168	0x3ca1cc30	0.019750684
169	0xbdd06b80	-0.10176754
170	0xbd122fbf	-0.035690065
171	0x3dc39b4a	0.095511034
172	0x3c9909d1	0.018681439
173	0xbd0b8386	-0.034060977
174	0xbd1eea77	-0.03879782
175	0x3ca21d81	0.01978946
176	0x3b4001c8	0.0029297937
177	0x3d12932c	0.035784885
178	0xbdf4738b	-0.119361006
179	0x3cdab6d0	0.0266985
180	0x3dafea21	0.085895784
181	0xbbbc940c	-0.0057549533
182	0x3daefdde	0.08544515
183	0xbdc5f9e8	-0.096668065
184	0x3dbc708c	0.09201154
185	0xbda96bbb	-0.08272501
186	0x3dcb9a42	0.09941532
187	0x3d7921d7	0.060823288
188	0xbe36bb38	-0.17844856
189	0x3e1b4b09	0.15165342
190	0x3d4129f1	0.04715914
191	0x3dcba3b0	0.0994333

rnn.weight_ih_l1 f4 [192, 64]
0	0xbd464378	-0.048404187
1	0xbe0ac7be	-0.13552758
2	0x3e917ab6	0.28413934
3	0x3d429722	0.047507413
4	0x3e5f6314	0.21815139
5	0xbe900a20	-0.28132725
6	0x3e942e2f	0.28941485
7	0xbdda6194	-0.10663143
8	0xbed21c69	-0.410373
9	0x3e294aa2	0.16532376
10	0x3e39c55f	0.18141697
11	0xbe38877d	-0.18020435
12	0xbe0c94e1	-0.13728668
13	0x3d682bfd	0.056682575
14	0x3ef27803	0.47357187
15	0xbb2b72a5	-0.0026160863
16	0xbd572fe4	-0.052535906
17	0xbcda7d4e	-0.026671078
18	0xbcbe126c	-0.023202144
19	0x3e4be3b6	0.19911084
20	0x3e0c91b0	0.1372745
21	0x3e3b20bb	0.18274204
22	0x3ddc3da9	0.10753948
23	0xbd8b0ffa	-0.06790157
24	0xbe5fa1ac	-0.21839017
25	0x3e3fe26b	0.18738715
26	0xbd5d4be6	-0.05402746
27	0xbce19290	-0.027535707
28	0xbe2cff79	-0.1689433
29	0xbe2627ad	-0.16226073
30	0xbd8ff4ad	-0.0702909
31	0x3bfef83e	0.0077810576
32	0x3e560b34	0.20902711
33	0x3e18794b	0.1489002
34	0x3e01dc82	0.12681773
35	0xbe79cada	-0.24393788
36	0x3d73ed31	0.059552375
37	0xbc7cd18f	-0.015430822
38	0x3d379cf0	0.0448274
39	0x3df97c52	0.12181915
40	0x3e255e54	0.16149265
41	0x3e7ced6b	0.24699943
42	0xbe49d214	-0.19709045
43	0x3e4efb64	0.20213085
44	0x3e363f25	0.17797525
45	0xbdb37d74	-0.08764163
46	0x3e12e342	0.14344504
47	0xbe27b059	-0.16375865
48	0xbdded88e	-0.10881148
49	0xbdf586ad	-0.11988578
50	0xbe5b69e6	-0.21427116
51	0x3dacf480	0.08445072
52	0x3e3514f4	0.17683774
53	0xbda97b31	-0.0827545
54	0x3d5e763f	0.054311987
55	0x3e25343e	0.1613321
56	0x3cbb7137	0.022881133
57	0x3e368b82	0.17826656
58	0x3d2663c0	0.040622473
59	0x3ea8a111	0.32935384
60	0xbecb11d6	-0.39662045
61	0xbcec6a1d	-0.028859193
62	0x3d1d3c63	0.038387667
63	0xbe8c9f6c	-0.2746538
64	0xbd0d4a34	-0.034494594
65	0x3dabfc00	0.083976746
66	0xbe130bb2	-0.1435993
67	0x3dea0a69	0.11427767
68	0xbd4346dd	-0.047675002
69	0x3e402ec6	0.18767843
70	0x3dfa3053	0.12216248
71	0x3d1f316a	0.038865484
72	0x3daed849	0.08537347
73	0x3d16a2f9	0.036776517
74	0xbe203580	-0.15645409
75	0x3d6217a5	0.05519833
76	0x3d9405c2	0.07227661
77	0x3d2a26a2	0.04154075
78	0xbd0a759b	-0.033803564
79	0x3e8b0137	0.27149364
80	0xbdc939a7	-0.098254494
81	0x3dd00da4	0.10158852
82	0x3ce9dea8	0.028548554
83	0xbbd0a90d	-0.0063678087
84	0x3c8f3b6d	0.017484391
85	0xbe22f3ea	-0.15913358
86	0xbddfffe5	-0.1093748
87	0x3cfe50d4	0.031044401
88	0x3d7ac5ff	0.06122398
89	0x3e289d6e	0.16466305
90	0xbd9bc2b2	-0.076054946
91	0x3dfedd0b	0.12444504
92	0x3dad0dcf	0.084498994
93	0xbdd8a3e0	-0.10578132
94	0xbe188700	-0.14895248
95	0xbd2a7732	-0.04161758
96	0xbcca76c8	-0.024714842
97	0xbe2424d9	-0.16029681
98	0xbe070a14	-0.13187438
99	0x3cf246ac	0.029574715
100	0xbd3b89c2	-0.045785673
101	0x3e09618b	0.13416116
102	0xbdd4b265	-0.103855886
103	0xbdbae238	-0.09125179
104	0x3da0ed38	0.07857746
105	0xbdea4ce8	-0.1144045
106	0xbca7fe81	-0.0205071
107	0xbe01f00d	-0.12689228
108	0x3c2cf610	0.010556713
109	0xbe4beae8	-0.19913828
110	0xbd8d1d13	-0.06890311
111	0xbe33d0ec	-0.17560166
112	0x3dc64fd3	0.09683194
113	0x3e70f9d9	0.2353281
114	0x3eadde85	0.3395883
115	0xbdc31cbf	-0.09526967
116	0x3a8d667a	0.0010787987
117	0x3e3db356	0.18525442
118	0x3d0c329f	0.034227964
119	0x3da43fa7	0.08019953
120	0xbe3ab9ed	-0.18234988
121	0x3df965a6	0.12177591
122	0xbc89af05	-0.016807089
123	0xbd994816	-0.074844524
124	0x3e2f02c2	0.17090896
125	0xbd23976f	-0.03993934
126	0xbe8c24a5	-0.27371708
127	0x3eba5866	0.36395568
128	0x3e1ba4eb	0.1519963
129	0xbe06b773	-0.13155918
130	0x3e25ea06	0.16202554
131	0xbdc33b72	-0.09532823
132	0xbe5dd1f7	-0.21662126
133	0x3db90fb2	0.09036197
134	0xbcd0e59f	-0.025500117
135	0x3e452500	0.19252396
136	0x3d197738	0.03746721
137	0x3e5e78c8	0.21725762
138	0x3da48bdd	0.08034489
139	0x3e31d369	0.17365803
140	0x3c62fb8a	0.013853917
141	0x3ca0f2b0	0.019646972
142	0xbd2bfc5b	-0.04198871
143	0x3d05e582	0.03268958
144	0x3d888dab	0.06667646
145	0x3e2bc4ec	0.16774338
146	0xbdfdb632	-0.123882666
147	0x3dd60254	0.10449663
148	0x3c70216f	0.014656409
149	0xbe79bcf8	-0.24388492
150	0x3e2372a2	0.15961698
151	0xbe83fbc7	-0.25778028
152	0xbd6df390	-0.058093607
153	0x3e6a113a	0.22858134
154	0x3e1a72c5	0.15082844
155	0x3ddce9a1	0.10786749
156	0xbdd7661a	-0.10517521
157	0xbe3caac6	-0.1842452
158	0xbdfbdd7f	-0.122981064
159	0xbba42426	-0.005009192
160	0x3e1d984b	0.15390126
161	0x3d8900d0	0.06689608
162	0x3dd75c04	0.105155975
163	0x3d048881	0.032356743
164	0xbe1f25e1	-0.15541793
165	0xbdd15c67	-0.102227025
166	0x3cad5fce	0.021163847
167	0xbe1e5706	-0.15462884
168	0xbe124062	-0.14282373
169	0x3e24c372	0.16090181
170	0xbd9e4d13	-0.077295445
171	0xbe25b28f	-0.16181396
172	0xbe6444fc	-0.2229194
173	0x3e142f06	0.14471063
174	0x3e0c5afc	0.13706583
175	0x3d801eb9	0.0625586
176	0xbe0ac685	-0.13552292
177	0x3f23aaf3	0.6393272
178	0xbe0389c7	-0.12845527
179	0x3e3022a3	0.17200713
180	0xbc3bfebe	-0.0114743095
181	0xbe9a9daa	-0.30198413
182	0xbe37db3e	-0.17954728
183	0xbe67d67e	-0.22640416
184	0xbe74755d	-0.23872896
185	0x3ab7fa44	0.0014036377
186	0x3e8f1315	0.27944246
187	0xbe82149d	-0.25406352
188	0xbda4c688	-0.08045679
189	0x3e7921f4	0.24329358
190	0xbe6373f5	-0.22212203
191	0x3e090f38	0.13384712
192	0xbeee9a2a	-0.46601993
193	0xbdce088a	-0.100602224
194	0x3e6ede5d	0.23327012
195	0xbe1543d3	-0.14576654
196	0x39d3a066	0.00040364562
197	0x3e3e9d10	0.18614602
198	0xbdea8ebc	-0.11453006
199	0xbe96946e	-0.29410118
200	0xbd903d68	-0.07042962
201	0xbdf1de54	-0.11809984
202	0xbdbc2ed8	-0.09188622
203	0x3e562660	0.20913076
204	0x3cafc199	0.02145462
205	0xbea212ac	-0.3165487
206	0xbc095270	-0.008381471
207	0x3d5d3ef2	0.054015107
208	0xbdd92b28	-0.106039345
209	0x3cd87f0e	0.026427772
210	0xbdf3cec2	-0.1190467
211	0x3e127b57	0.14304863
212	0x3d22c882	0.039742
213	0x3e851366	0.25991362
214	0xbe8c5a75	-0.27412763
215	0xbe4c311d	-0.1994061
216	0x3ea4e590	0.32206392
217	0x3e1da2ce	0.15394136
218	0xbd6389f8	-0.0555515
219	0x3dc5fc58	0.096672714
220	0x3e3e91b0	0.18610263
221	0xbe9c333f	-0.30507848
222	0xbe6c0d10	-0.23051858
223	0x3e1e38a0	0.15451288
224	0x3de30d00	0.11086464
225	0xbe4d7517	-0.20064197
226	0x3b14dfd7	0.0022716427
227	0x3dc878c2	0.09788658
228	0x3d1ecf5e	0.03877198
229	0x3e05ec97	0.13078533
230	0x3e4711f6	0.19440445
231	0xbdea3c82	-0.11437322
232	0xbdb60674	-0.088879496
233	0x3e2cbb8a	0.16868415
234	0x3dec25e5	0.11530665
235	0xbdd93ab8	-0.10606903
236	0x3e1c250a	0.15248504
237	0xbdb4a5a8	-0.08820659
238	0xbcbe849b	-0.02325659
239	0xbf257b70	-0.64641476
240	0x3c67fddb	0.014159645
241	0x3da450b2	0.08023204
242	0x3d896bd2	0.06710018
243	0x3e87c852	0.2652002
244	0x3e8bd335	0.27309576
245	0xbd8e0b34	-0.069357306
246	0xbd8d254d	-0.0689188
247	0x3e54e1fd	0.20789333
248	0xbe9270fd	-0.28601828
249	0xbd4cbe65	-0.049986262
250	0x3d9196a9	0.07108814
251	0xbddb7f4a	-0.10717638
252	0xbe422bd6	-0.18962035
253	0xbd94e4e0	-0.07270217
254	0xbddd918c	-0.108187765
255	0xbf091c27	-0.5355858

rnn.weight_hh_l1 f4 [192, 64]
0	0x3de1124e	0.109898195
1	0x3d83f617	0.06443422
2	0xbdb2edd8	-0.08736771
3	0x3dc17477	0.09446042
4	0x3e5a2266	0.21302184
5	0xbcd8ed21	-0.02648026
6	0x3e56a283	0.20960431
7	0xbe44628d	-0.19178219
8	0x3d3b2cd8	0.045697063
9	0xbe1d27fd	-0.15347286
10	0x3daad67f	0.08341693
11	0x3de7d4a6	0.11319856
12	0xbc66a256	-0.01407679
13	0xbdb0d9c8	-0.086352885
14	0xbdb17664	-0.08665159
15	0xbe325571	-0.17415406
16	0xbd80b76d	-0.06284986
17	0xbea84ecb	-0.32872614
18	0x3e2b0f81	0.16705133
19	0xbe439255	-0.1909879
20	0x3e25a51a	0.16176262
21	0xbdf6ed42	-0.12056972
22	0xbe57d753	-0.21078233
23	0x3e6f5a90	0.2337439
24	0xbe44cdfc	-0.19219202
25	0xbd4e3937	-0.050347533
26	0xbd217c90	-0.039425433
27	0xbe471292	-0.19440678
28	0x3dbe9cae	0.09307228
29	0x3d63c183	0.05560447
30	0xbde20e3c	-0.11037871
31	0xbd380f2d	-0.044936348
32	0x3e40d802	0.188324
33	0x3e3e7c4c	0.18602103
34	0xbcf8675b	-0.030322721
35	0x3dea9910	0.114549756
36	0x3e2aad90	0.16667771
37	0xbe9c3e51	-0.30516294
38	0x3e702e52	0.2345517
39	0xbdb03f39	-0.08605809
40	0xbe873fe8	-0.26415944
41	0x3dd26fd0	0.10275233
42	0x3e09da0b	0.13462083
43	0x3d8154b1	0.06314982
44	0x3e4e052e	0.20119163
45	0x3c39fd0f	0.011351838
46	0x3edce721	0.43145087
47	0x3e87bd77	0.26511738
48	0xbdd6a131	-0.104799636
49	0xbd93c78e	-0.072157964
50	0xbe4b596e	-0.19858333
51	0x3e748c21	0.2388158
52	0xbe5eacdc	-0.21745628
53	0x3da1a1c9	0.07892186
54	0x3d2f0e37	0.042738166
55	0x3e8b9dbe	0.27268785
56	0x3e881e30	0.2658553
57	0xbe6cd8af	-0.23129533
58	0x3e8a0d30	0.26963186
59	0xbe4d035d	-0.20020814
60	0x3e2bbb08	0.16770566
61	0x3e232687	0.15932666
62	0x3e9e9f46	0.3098089
63	0x3d9d64eb	0.07685264
64	0x3b8ccf07	0.0042971405
65	0x3e036887	0.12832843
66	0x3d34d362	0.044146903
67	0xbe319910	-0.17343545
68	0x3ba52174	0.0050393883
69	0x3d1ed91c	0.03878127
70	0xbe27ad2d	-0.16374655
71	0xbdfafb3f	-0.12254953
72	0xbe9bb47e	-0.30411142
73	0x3dc7f252	0.09763016
74	0x3dc66d5a	0.09688826
75	0xbe179e57	-0.14806496
76	0xbe7ec842	-0.2488108
77	0x3d821916	0.06352441
78	0xbd57cc8c	-0.052685305
79	0xbd06f66e	-0.032949857
80	0xbe0d001e	-0.13769576
81	0x3e1b90b6	0.15191922
82	0xbdb95bf4	-0.09050742
83	0x3dce5d69	0.1007641
84	0xbe665d8c	-0.22496623
85	0xbcc82c60	-0.024435222
86	0x3e001c1f	0.12510727
87	0x3e0be078	0.13659847
88	0x3dd0f2aa	0.102025345
89	0xbdbd319c	-0.09237978
90	0x3df5d57f	0.12003612
91	0x3cf32fa1	0.029685797
92	0xbd31ebd3	-0.04343779
93	0x3d81ad96	0.06331937
94	0x3cc18fbe	0.023628112
95	0x3d8985c2	0.067149654
96	0xbe1e8022	-0.15478566
97	0x3d4dcd86	0.05024483
98	0x3bb1e740	0.0054291785
99	0x3dd29171	0.10281647
100	0xbe31785e	-0.17331073
101	0x3e409c1a	0.18809548
102	0xbe0847cb	-0.13308637
103	0x3e4c0aef	0.19926046
104	0xbd2e3ccf	-0.04253846
105	0xbc390064	-0.011291597
106	0xbe0374f9	-0.1283759
107	0xbe291463	-0.16511683
108	0xbd5e4646	-0.054266237
109	0xbedb7e66	-0.42869872
110	0x3d5aa124	0.053376332
111	0x3aa8f956	0.0012891691
112	0x3d8e7378	0.06955618
113	0xbd81c1a0	-0.06335759
114	0x3d85c607	0.06531911
115	0x3dc69b24	0.096975595
116	0xbb503efc	-0.0031775823
117	0xbdb89869	-0.09013445
118	0xbdaa2b32	-0.0830902
119	0xbd8d5c5f	-0.06902384
120	0x3a284205	0.0006418529
121	0x3c9d78c4	0.019222625
122	0xbcaead19	-0.021322774
123	0x3d35f538	0.044423312
124	0xbe19d627	-0.15023099
125	0xbe23b7ba	-0.15988055
126	0x3d65be44	0.056089655
127	0xbdbef7b4	-0.09324589
128	0x3d918aa5	0.071065225
129	0x3dcdf04a	0.10055597
130	0x3dc2efd0	0.09518397
131	0xbe0ff5aa	-0.14058557
132	0x3e829103	0.2550126
133	0x3cc4ff60	0.024047554
134	0xbea39439	-0.31949022
135	0x3deb0edd	0.11477444
136	0xbe0f3b1d	-0.13987394
137	0x3dab183c	0.08354232
138	0x3d030048	0.03198269
139	0xbda5bd84	-0.08092788
140	0x3e211879	0.15731992
141	0x3e684e10	0.22686028
142	0xbe1e2cdc	-0.154468
143	0x3e2e2c38	0.17009056
144	0xbd2bc3d8	-0.041934818
145	0x3e08bade	0.13352534
146	0xbe4fbe32	-0.20287398
147	0x3d1d086b	0.038338106
148	0x3d9e7e9e	0.07738994
149	0xbe112ff7	-0.14178453
150	0xbdb1a6d5	-0.08674399
151	0x3e579d96	0.21056208
152	0x3de5f680	0.11228657
153	0x3e87b806	0.26507586
154	0xbd20491c	-0.039132223
155	0x3d3ae8f0	0.045632303
156	0x3db7c99e	0.08974002
157	0xbc70cd41	-0.014697374
158	0xbe1b0e90	-0.15142274
159	0xbd4a0287	-0.049318817
160	0x3e1372e3	0.14399295
161	0x3dafb6d0	0.085797906
162	0x3cd71523	0.026255196
163	0x3a589bd4	0.00082629663
164	0xbe407eef	-0.18798421
165	0x3da98032	0.082764044
166	0x3c393135	0.011303236
167	0x3d88bf67	0.06677132
168	0x3d88cf63	0.06680181
169	0xbc188ed8	-0.0093114
170	0x3ce2ab19	0.027669476
171	0xbd881b3f	-0.06645822
172	0xbe43e8ee	-0.19131824
173	0xbd152653	-0.036413502
174	0x3e08104e	0.1328747
175	0xbed2aff0	-0.41149855
176	0x3e2d8ea3	0.16948943
177	0x3e179482	0.14802745
178	0x3dbeb022	0.093109384
179	0x3e0d8b22	0.13822606
180	0xbe6797a4	-0.2261644
181	0x3dc9524f	0.09830152
182	0x3e37aa51	0.17936064
183	0xbd9c4908	-0.07631117
184	0xbe11e89b	-0.14248888
185	0x3ea8e20d	0.32984963
186	0x3dd6c84d	0.10487423
187	0xbe44395b	-0.19162504
188	0xbe599622	-0.21248677
189	0x3c0330ab	0.008007209
190	0xbd3955b8	-0.045247763
191	0x3cb9d014	0.022682227
192	0xbd7bcd7e	-0.06147527
193	0xbbb5d620	-0.0055492073
194	0xbd45dac0	-0.04830432
195	0x3e1cbacb	0.15305631
196	0xbd91297c	-0.07087991
197	0xbd4d11f3	-0.050065946
198	0x3e07228e	0.13196775
199	0xbe357c28	-0.17723143
200	0x3cc27ed1	0.023742111
201	0xbe0d1089	-0.13775839
202	0x3eb87348	0.36025453
203	0x3bce7e2c	0.006301662
204	0x3e6d9f3d	0.23205276
205	0xbaa5fe72	-0.0012664332
206	0x3e0649dc	0.13114113
207	0x3df1c67e	0.118054375
208	0x3d830db4	0.06399098
209	0x3dcbe418	0.09955615
210	0x3da31191	0.07962335
211	0xbdb56cee	-0.08858667
212	0xbe110526	-0.1416212
213	0xbe668d33	-0.225148
214	0x3db35097	0.08755606
215	0xbe261456	-0.16218695
216	0x3d349c5e	0.044094436
217	0xbe01cfba	-0.12676898
218	0x3c96ff40	0.01843226
219	0xbd8d656c	-0.0690411
220	0x3da76650	0.081738114
221	0x3d43b7f0	0.04778284
222	0x3e150f42	0.14556602
223	0x3e623fdc	0.22094673
224	0xbdee65a9	-0.11640484
225	0x3c9095cc	0.017649554
226	0x3d550a7c	0.05201195
227	0x3e8889ac	0.26667535
228	0xbda06f6c	-0.07833752
229	0x3e47bfa5	0.195067
230	0x3e08b0f2	0.1334875
231	0x3da50da1	0.0805924
232	0x3e0ebf52	0.1394017
233	0x3e005457	0.12532173
234	0xbdf6288e	-0.12019454
235	0xbe2edabb	-0.17075627
236	0xbded5c26	-0.115898415
237	0xbde5245f	-0.11188578
238	0x3e77cbee	0.24198887
239	0xbe0e32a4	-0.13886505
240	0xbde616ff	-0.11234855
241	0x3eba4159	0.3637798
242	0x3c7beee4	0.01537678
243	0x3e83226c	0.256122
244	0x3daabb37	0.0833649
245	0x3e0cf324	0.13764626
246	0xbd8af174	-0.06784335
247	0x3d9218d4	0.07133642
248	0x3e1a9b40	0.15098286
249	0xbd9b4702	-0.07581903
250	0x3e759a75	0.23984702
251	0xbb6c53c8	-0.003606068
252	0xbdf4d5d6	-0.119548485
253	0x3e8a7eba	0.2704981
254	0x3dab01be	0.08349942
255	0x3db61978	0.088915765

rnn.bias_ih_l1 f4 [192]
0	0x3e47b74e	0.19503519
1	0x3db378c4	0.087632686
2	0x3bcf5120	0.0063268095
3	0xbc52e47a	-0.012871856
4	0x3dda7782	0.106673256
5	0x3b9e8523	0.0048376485
6	0x3dab9b2a	0.083792046
7	0x3d88f43d	0.0668721
8	0xbd965d10	-0.07341969
9	0x3d0eeaab	0.034891766
10	0xb9dd4f4a	-0.0004221148
11	0x3db4292b	0.08796915
12	0x3da45ce0	0.08025527
13	0xbd365730	-0.044516742
14	0xbc568b4e	-0.013094736
15	0xbc79c0e9	-0.015243747
16	0x3e202f7b	0.15643112
17	0x3ddd06ac	0.10792288
18	0xbda2224f	-0.079167
19	0x3e197606	0.14986429
20	0xbd8925de	-0.06696676
21	0x3d012ad2	0.031534977
22	0x3d5d86cd	0.054083634
23	0xbdbfce83	-0.09365561
24	0xbbfd86d3	-0.0077370196
25	0x3e52d2d8	0.20588243
26	0xbd452044	-0.048126474
27	0x3d479426	0.04872527
28	0xbd0c1c65	-0.034206767
29	0x3e3769d7	0.17911468
30	0x3d5d68ac	0.0540549
31	0x3e3a191d	0.18173642
32	0x3cf9a459	0.030473875
33	0x3dfed276	0.12442486
34	0xbdbaee53	-0.09127488
35	0x3e104b72	0.1409128
36	0x3d69a576	0.05704256
37	0x3e8c807e	0.27441782
38	0x3d9b67d2	0.075881615
39	0xbdf1c562	-0.11805226
40	0x3cf9ed21	0.03050858
41	0x3e1e477b	0.15456955
42	0x3ca641a2	0.020294968
43	0x3b2814f1	0.0025647248
44	0x3e2dc052	0.16967896
45	0x3dd4dc34	0.10393563
46	0x3e6f7463	0.23384242
47	0x3e1e2d32	0.15446928
48	0xbd591744	-0.053000703
49	0xbd3a8574	-0.045537427
50	0xbd3b675e	-0.045752876
51	0x3df0a0c7	0.11749416
52	0x3e1dd8f9	0.154148
53	0xbb893c75	-0.0041881152
54	0x3cd028d2	0.02541009
55	0x3ddbe027	0.10736113
56	0x3d869695	0.0657169
57	0x3d64c0dc	0.055847988
58	0x3d6d073e	0.057868235
59	0x3d3a3eec	0.045470163
60	0xbda6fbd2	-0.081535
61	0xbdd244db	-0.102670394
62	0x3e499a95	0.19687875
63	0x3d212048	0.039337426
64	0xbbb9c60e	-0.005669362
65	0x3c9bf9fd	0.019040102
66	0xbba5da70	-0.00506144
67	0xbe488b21	-0.19584323
68	0xbe1b6bf9	-0.15177907
69	0x3e686fa2	0.22698835
70	0xbe324b00	-0.17411423
71	0xbd9c92e7	-0.07645207
72	0xbd96ac4e	-0.07357083
73	0xbe3d123a	-0.18463984
74	0xbeb6414c	-0.35596693
75	0xbde07387	-0.10959535
76	0xbdee828d	-0.11645994
77	0x3d3b113a	0.045670725
78	0xbe5d8996	-0.21634516
79	0xbcf9078f	-0.030399112
80	0xbc219c28	-0.009863891
81	0xbc4d05dd	-0.012513605
82	0x3d8cab13	0.06868567
83	0x3e91ebd3	0.28500232
84	0x3e38126c	0.17975777
85	0xbc3e1d50	-0.011603668
86	0xbe32afc3	-0.1744986
87	0x3d6f6c42	0.058452852
88	0x3e0ac95a	0.13553372
89	0xbe61521b	-0.22003977
90	0x3dd31614	0.103069454
91	0xbdacc15c	-0.08435318
92	0xbca5eeb2	-0.02025542
93	0x3e0f68dc	0.14004844
94	0xbd76e3c9	-0.060275827
95	0xbe0bd334	-0.13654786
96	0xbdb67731	-0.08909453
97	0x3c398490	0.011323109
98	0xbd60b00e	-0.0548554
99	0x3e07d058	0.1326307
100	0x3dde406c	0.10852131
101	0x3ec089bc	0.37605083
102	0xbd812bee	-0.06307207
103	0x3dacf32e	0.0844482
104	0xbe0b355c	-0.13594574
105	0x3d667756	0.05626615
106	0xbda0381e	-0.078232035
107	0x3dbe676a	0.092970684
108	0xbd180326	-0.037112378
109	0xbd104363	-0.035220515
110	0xbed1f22d	-0.41005078
111	0xbe18d59f	-0.1492524
112	0x3d87c71c	0.06629774
113	0xbbf12255	-0.007358829
114	0xbd96bb28	-0.07359916
115	0xbe28f596	-0.16499934
116	0x3e225a36	0.15854725
117	0xbe554d37	-0.20830236
118	0x3e248a2d	0.16068335
119	0x3d1e9007	0.038711574
120	0xbd5ff9c0	-0.05468154
121	0x3d299a88	0.041407138
122	0xbd0e7ab7	-0.034785
123	0xbcdd8215	-0.027039567
124	0x3db8fd1a	0.0903265
125	0xbe2f8602	-0.17140964
126	0x3dd7a3e4	0.105293065
127	0xbe373c66	-0.17894134
128	0x3e0120d9	0.12610187
129	0xbddd51a5	-0.10806588
130	0x3ca34da6	0.019934487
131	0x3d947b5e	0.07250093
132	0xbd235ac6	-0.03988149
133	0xbe88392e	-0.26606125
134	0xbd22bdc5	-0.03973176
135	0xbda4dff9	-0.08050532
136	0x3d00b302	0.031420715
137	0xbd0deff5	-0.03465267
138	0xbd064c4c	-0.032787606
139	0x3d22828e	0.039675288
140	0xbca45455	-0.020059744
141	0x3d9b4dae	0.075831756
142	0xbdb9f5f0	-0.09080112
143	0x3d5d7b6c	0.054072782
144	0x3de6a43f	0.11261796
145	0x3d542220	0.051790357
146	0x3d3036e0	0.043021083
147	0x3d984b32	0.07436217
148	0x3dbf0ea2	0.09328963
149	0xbd25c649	-0.040472303
150	0xbda58ca4	-0.08083466
151	0x3dddc2ca	0.10828169
152	0xbd4f406c	-0.050598547
153	0x3dcad07f	0.09903049
154	0x3d2d09ba	0.042245604
155	0x3aebd46d	0.0017992385
156	0xbcfab2af	-0.030602781
157	0x3ddc8556	0.10767619
158	0xbe103da3	-0.14086013
159	0xbdc40270	-0.095707774
160	0x3e038f3a	0.12847605
161	0xbd420e25	-0.04737677
162	0xbd52a958	-0.05143103
163	0xbd7a31fa	-0.061082818
164	0x3c0bc2d7	0.00853034
165	0xbd2c23ab	-0.042026203
166	0x3d23b224	0.03996481
167	0x3cbd1835	0.023082832
168	0x3ca0f332	0.019647215
169	0x3d2d63d3	0.042331528
170	0x3dc72ada	0.0972497
171	0x3d6d7fc8	0.05798319
172	0xbe0c207a	-0.13684264
173	0xbcdc0239	-0.026856529
174	0x3d2c23c2	0.04202629
175	0x3d22fc55	0.039791424
176	0x3b54a264	0.0032445425
177	0x3e414503	0.18873982
178	0xbe1850dd	-0.14874597
179	0xbd858069	-0.06518633
180	0xbdb10768	-0.08643991
181	0x3d3dcaee	0.046336107
182	0x3dc46066	0.09588699
183	0xbd73d5fd	-0.059530247
184	0xbd7fae5e	-0.06242215
185	0x3d8877f4	0.06663504
186	0x3e1b73dc	0.15180916
187	0xbd94b9bd	-0.07261989
188	0xbdb64322	-0.08899523
189	0x3d451f45	0.048125524
190	0x3d7f2998	0.062295526
191	0xbce338d6	-0.027737062
